weights/1050.pt (torch, 662157 bytes, 11 tensors)

rnn.weight_ih_l0 f4 [400, 100]
0	0xbda34e07	-0.07973867
1	0x3d1fd2fa	0.039019562
2	0x3b0d2a2f	0.0021540036
3	0x3a59f265	0.00083140127
4	0xbdce2a3b	-0.100666486
5	0xbc14ce70	-0.009082422
6	0xbddf5f91	-0.109069
7	0xbc8847c0	-0.016635776
8	0xbd8eba01	-0.06969071
9	0x3d158fdb	0.036514144
10	0xbdb65b16	-0.08904092
11	0x3db12a38	0.08650631
12	0x3dec952f	0.11551892
13	0xbd489fd2	-0.04898054
14	0x3d342b03	0.04398633
15	0xbde7bd77	-0.113154344
16	0xbd40ca4c	-0.047067925
17	0xbcd303ae	-0.02575859
18	0xbcedb99d	-0.029019171
19	0x3e0bd3b6	0.1365498
20	0xbd6c1991	-0.05764157
21	0x3e0c524d	0.1370327
22	0x3d987cf3	0.07445707
23	0xbe20d622	-0.15706685
24	0xbdc36e8f	-0.09542572
25	0x3d8f7def	0.07006442
26	0x3df0f4b3	0.11765423
27	0xbdc40393	-0.09570994
28	0xbddbc085	-0.107300796
29	0xbd6976f2	-0.0569982
30	0x3d030a8a	0.031992473
31	0xbe06075c	-0.13088745
32	0xbdbedc1d	-0.09319327
33	0xbdf52200	-0.119693756
34	0x3cf39afd	0.02973699
35	0xbd7e151a	-0.062031843
36	0xbd0a814c	-0.033814713
37	0xbd9a5778	-0.075362146
38	0xbe04889f	-0.12942742
39	0xbdbbce6b	-0.091702305
40	0xbd960c75	-0.07326595
41	0x3cd6ae91	0.026206287
42	0xbd5fb582	-0.05461646
43	0x3cb977a5	0.022640059
44	0xbd7c11a1	-0.06154025
45	0x3ddd008c	0.1079112
46	0x3de53350	0.11191428
47	0x3de951dd	0.11392567
48	0xbdcbc6ae	-0.099500045
49	0x3d440110	0.047852576
50	0x3cda4e6b	0.02664872
51	0xbdf23196	-0.11825864
52	0x3bb7fded	0.005614987
53	0xbe317b07	-0.17332087
54	0x3d7e83a0	0.062137246
55	0xbd266d62	-0.04063166
56	0x3c8ec703	0.01742888
57	0xbdd8d1b5	-0.105868734
58	0x3df75be5	0.12078074
59	0xbd5e6525	-0.054295678
60	0xbd76aaaf	-0.06022137
61	0x3dea9d62	0.114558
62	0xbcbd6876	-0.0231211
63	0xbc754767	-0.014970637
64	0xbd54be5e	-0.05193936
65	0x3dd533ac	0.10410246
66	0xbd59c43d	-0.053165663
67	0xbe2f2c56	-0.17106757
68	0xbe0a91dd	-0.13532205
69	0x3d3848c0	0.044991255
70	0x3d9ec30b	0.07752045
71	0xbd04b68a	-0.032400645
72	0x3d53b881	0.05168963
73	0x3db551cd	0.08853493
74	0xbcd4a456	-0.025957268
75	0x3d96f9f9	0.07371897
76	0xbc9995cf	-0.018748192
77	0x3cafb02d	0.021446312
78	0xbd625017	-0.05525216
79	0xbd36ae89	-0.044600043
80	0x3da23d84	0.079218894
81	0x3e360af5	0.17777617
82	0x3dbf8322	0.093511835
83	0x3c89d43f	0.01682484
84	0xbe683dae	-0.22679779
85	0x3e1e7771	0.15475251
86	0xbda6eb07	-0.08150297
87	0xbcfa08ff	-0.030521868
88	0x3dc6bfa7	0.097045235
89	0x3dc78026	0.09741239
90	0x3dec42b7	0.11536162
91	0xbd572252	-0.052522965
92	0x3a118131	0.0005550562
93	0x3e2a6411	0.16639735
94	0x3cc85bd4	0.02445785
95	0x3d3353bd	0.04378103
96	0xbe21eb4a	-0.15812412
97	0xbc99df84	-0.018783338
98	0xbd92c854	-0.07167116
99	0x3e19d887	0.15024005
100	0x3b9a6659	0.004711908
101	0x3d719f84	0.058990017
102	0x3dbae5e2	0.09125878
103	0xbd1a63a5	-0.037692685
104	0xbdaa0b92	-0.08302988
105	0x3e04b9e8	0.12961543
106	0x3b59ca68	0.0033232216
107	0x3cc9266f	0.02455446
108	0x3b934271	0.0044940044
109	0xbc922528	-0.017839983
110	0x3d0e7dea	0.03478805
111	0x3c69c706	0.014268642
112	0x3a6d2c3f	0.00090474257
113	0x3dd101e0	0.10205436
114	0xbda28a33	-0.07936516
115	0xbe11d096	-0.14239725
116	0x3a4281ef	0.00074198743
117	0xbd4ac8b6	-0.04950782
118	0x3d45a295	0.048250753
119	0x3e3a8388	0.18214238
120	0xbdf42a54	-0.11922136
121	0x3d4ca5d3	0.04996283
122	0x3de8537c	0.113440484
123	0xbdd767a4	-0.10517815
124	0xbda7667a	-0.08173843
125	0x3e1ac7aa	0.15115228
126	0xbc6bce7f	-0.014392494
127	0xbc52a1e2	-0.012855979
128	0x3b062ab0	0.002047222
129	0x3d296c84	0.041363254
130	0xbcdbb026	-0.026817393
131	0xbd90725b	-0.070530616
132	0x3dbc5dea	0.091976
133	0xbdbbb746	-0.09165816
134	0xbd878d44	-0.06618741
135	0x3cdb4c3f	0.026769755
136	0xbe14b6fa	-0.14522925
137	0xbc289a45	-0.010290687
138	0xbde775f9	-0.113017984
139	0x3c357be9	0.011076906
140	0x3e0ec304	0.1394158
141	0xbd571721	-0.05251229
142	0xbd992a62	-0.07478787
143	0x3c06f2a5	0.008236562
144	0x3dcac7ff	0.099014275
145	0x3d2760c7	0.04086378
146	0x3dd9a689	0.10627467
147	0xbc8f32d7	-0.017480297
148	0xbbba1522	-0.0056787888
149	0xbd8ba61c	-0.06818792
150	0xbd41090c	-0.04712777
151	0x3d518406	0.051151298
152	0xbd99cd31	-0.0750984
153	0xbd4f3f59	-0.050597522
154	0xbc764d0c	-0.015033018
155	0x3d87cb26	0.06630544
156	0x3cfa4617	0.030551
157	0xbc924b47	-0.01785816
158	0xbcf79e28	-0.030226782
159	0xbd62d260	-0.05537641
160	0xbcee9927	-0.029125763
161	0x3c9428dd	0.018085891
162	0xbdcb256f	-0.09919249
163	0xbdc25bb2	-0.09490146
164	0xbdfa9d74	-0.12237063
165	0x3e0213ee	0.12702915
166	0xbc8fd644	-0.017558224
167	0x3c9f8aca	0.01947536
168	0x3d47ab7b	0.04874752
169	0x3db2a73f	0.08723306
170	0x3e2e051e	0.1699414
171	0x3d1ae5c8	0.037816793
172	0x3c7109ad	0.01471178
173	0x3c24dc42	0.010062279
174	0xbd42c047	-0.04754665
175	0x3e0fc987	0.1404172
176	0x3d8911b9	0.066928335
177	0xbdadf6e8	-0.08494359
178	0xbe4e9082	-0.20172313
179	0xbd9520e4	-0.07281664
180	0x3ddebb9d	0.10875628
181	0x3dcdbb98	0.10045546
182	0xbc982728	-0.018573359
183	0x3d057289	0.032579932
184	0xbd4eb965	-0.050469775
185	0xbcfca0ab	-0.030838331
186	0x3d1ab390	0.0377689
187	0x3dba236a	0.09088786
188	0x3c92cd92	0.01792029
189	0x3e02dbb0	0.12779117
190	0x3d046916	0.03232678
191	0x3caed70f	0.021342782
192	0x3dc0d68c	0.094159216
193	0x3d90ffd2	0.07080044
194	0x3c1fddf8	0.009757511
195	0xbb123dfa	-0.0022314773
196	0xbda7c365	-0.081915654
197	0x3d01e74e	0.03171473
198	0xbc9ba45c	-0.018999271
199	0x3ca9c5ff	0.020724295
200	0xbd94273c	-0.07234046
201	0xbd029fb0	-0.03189057
202	0x3e36f33c	0.17866224
203	0x3da3def7	0.080015115
204	0x3d717b98	0.05895576
205	0x3cd44660	0.025912464
206	0xbcaa2900	-0.020771503
207	0x3d9a4aba	0.07533784
208	0x3c309009	0.010776528
209	0x3d03e8bd	0.03220438
210	0xbe2e80fd	-0.17041393
211	0x3cb04a91	0.021519931
212	0xbcaff30d	-0.0214782
213	0xbb019dfa	-0.0019778
214	0x3d066e02	0.032819755
215	0x3c4319f4	0.011908043
216	0xbe173792	-0.14767292
217	0x3da1e79f	0.07905506
218	0x3a94c228	0.0011349367
219	0x3dc2b428	0.09507018
220	0x3d815fdc	0.06317112
221	0xbdae9e09	-0.085262366
222	0xbe0373f2	-0.12837198
223	0x3d03cff1	0.03218073
224	0xbd9cb2e5	-0.07651309
225	0xbafab1c1	-0.0019126461
226	0x3e11e495	0.14247353
227	0x3d287b2a	0.041133083
228	0x3b9e03fa	0.0048222514
229	0xbd23eccc	-0.04002075
230	0xbd2389de	-0.039926402
231	0xbdbd1be2	-0.09233834
232	0x3d65e4bd	0.056126345
233	0x3d97296e	0.07380949
234	0x3df65f2a	0.1202987
235	0x3d8f8504	0.070077926
236	0x3d123fb8	0.0357053
237	0xbc620444	-0.013794962
238	0x3ba8bcbf	0.0051494534
239	0xbd8d3041	-0.06893969
240	0x3da4f473	0.080544375
241	0x3c28f9fa	0.010313505
242	0xbd2f142f	-0.042743858
243	0xba8df135	-0.0010829332
244	0x3a015c87	0.0004934747
245	0x3c9a417f	0.01883006
246	0x3deb00a2	0.1147473
247	0x3c46a09b	0.012123252
248	0x3d496cd6	0.04917606
249	0x3d973ab2	0.07384242
250	0x3da30620	0.079601526
251	0x3d5dc4da	0.05414281
252	0xbde878f3	-0.11351194
253	0x3dba2235	0.09088556
254	0x3cf89088	0.030342355
255	0xbdd01df3	-0.10161962

rnn.weight_hh_l0 f4 [400, 100]
0	0xbd703fa9	-0.05865446
1	0xbdabba7f	-0.08385181
2	0xbd49ddd8	-0.049283832
3	0x3cd8c0dd	0.026459152
4	0xbb0064ff	-0.0019591448
5	0xbe19c6f0	-0.15017295
6	0x3c73d1b3	0.014881539
7	0x3e0cae89	0.13738455
8	0x3b8b736b	0.0042557023
9	0xbe33b0f8	-0.17547977
10	0x3db49f62	0.08819462
11	0x3dcda5eb	0.10041412
12	0x3d1d7c8a	0.038448848
13	0xbe1e40bf	-0.15454386
14	0x3d69bb68	0.05706349
15	0x3dae17da	0.08500643
16	0x3e5578c1	0.20846845
17	0xbc1d6576	-0.00960671
18	0xbe48254c	-0.19545478
19	0xbd5f615c	-0.05453621
20	0xbe5657d7	-0.20931946
21	0xbd840ff6	-0.06448357
22	0xbd008b47	-0.031382825
23	0x3d4e39ca	0.05034808
24	0xbd51e46c	-0.05124323
25	0xbb03f659	-0.0020135848
26	0x3e06804e	0.13134882
27	0xbd8200c9	-0.06347806
28	0x3dcb5c84	0.09929755
29	0xbd2fc1a7	-0.04290929
30	0xbd5f827c	-0.0545678
31	0xbc85bdda	-0.01632588
32	0xbc924af2	-0.017858002
33	0xbd8ef904	-0.0698109
34	0x3e1f85b5	0.15578349
35	0x3dea76b3	0.11448421
36	0x3da77b38	0.08177799
37	0x3ad99d7b	0.0016602719
38	0xbd543ffc	-0.051818833
39	0x3d770098	0.0603033
40	0x3dc5766e	0.09641729
41	0xbd2f2a3f	-0.0427649
42	0xbd75ecdb	-0.060040336
43	0xbe24b511	-0.16084696
44	0x3c8253c6	0.015909087
45	0x3bdb73fd	0.0066971765
46	0x3d4dbe43	0.050230276
47	0xbcac40ce	-0.021026995
48	0xbdf30ad8	-0.11867303
49	0x3da657c2	0.08122207
50	0x3e151cb0	0.14561725
51	0x3cd5a6bb	0.02608048
52	0xbe1e5f49	-0.15466036
53	0x3dbc53ef	0.091956966
54	0x3e46df5f	0.19421147
55	0xbd8ecbaf	-0.06972443
56	0x3d0ee975	0.03489061
57	0x3df43db6	0.11925833
58	0x3d1567e1	0.03647602
59	0xbde518a7	-0.11186343
60	0xbd9b3c9f	-0.07579922
61	0xbde5e5b4	-0.11225453
62	0x3e7a389b	0.24435656
63	0x3d852a4f	0.0650221
64	0xbe0ea8a2	-0.13931516
65	0x3cc15e7c	0.023604624
66	0x3da5ccd2	0.08095707
67	0xbe0bd107	-0.13653956
68	0x3e3d9b75	0.18516333
69	0x3da107ea	0.078628376
70	0x3d89d5b0	0.06730211
71	0xbc11cfaa	-0.008899609
72	0x3d96520e	0.073398694
73	0xbdafe0cc	-0.085877985
74	0xbc6f99cf	-0.014624073
75	0x3ddd8d41	0.10817958
76	0x3ddef764	0.1088703
77	0x3e078ed9	0.13238086
78	0x3df65077	0.12027066
79	0xbe4b051a	-0.19826165
80	0xbd750f1f	-0.059828874
81	0x3d54f52d	0.05199163
82	0x3dd4c29b	0.103886805
83	0xbe0c8cca	-0.13725582
84	0xbdfff950	-0.124987245
85	0x3a016a74	0.0004936822
86	0x3e264614	0.1623767
87	0x3dd9d9a3	0.10637214
88	0xbd930aa4	-0.07179764
89	0x3db1c45b	0.0868003
90	0xbde5350b	-0.11191758
91	0x3c6e68c4	0.014551345
92	0xbd1498cc	-0.03627853
93	0x3e055580	0.13020897
94	0x3e30319f	0.17206429
95	0xbd718565	-0.058965106
96	0xbd132737	-0.03592607
97	0x3d4e8f5a	0.05042968
98	0x3e016054	0.12634403
99	0xbd1095fd	-0.03529929
100	0xb9457eda	-0.0001883464
101	0x3db2796c	0.08714566
102	0xbd117a41	-0.03551698
103	0xbd5bb777	-0.053641763
104	0x3d98e5c6	0.07465701
105	0x3c2787f7	0.010225288
106	0xbdacd9ad	-0.08439956
107	0x3e18f6de	0.14937922
108	0xbd9a58e4	-0.07536486
109	0xbe8164f4	-0.25272334
110	0x3e00025d	0.12500902
111	0x3ca758fc	0.020428173
112	0xbd057ad9	-0.03258786
113	0xbd0d98e1	-0.034569625
114	0xbc29e081	-0.010368467
115	0xbcecbcde	-0.028898653
116	0x3ceabcc0	0.028654456
117	0xbdbd974e	-0.09257375
118	0xbdef59c3	-0.116870426
119	0xbd32471b	-0.043524843
120	0xbcc0b8f3	-0.02352569
121	0x3dd98e51	0.10622848
122	0x3e256db7	0.16155134
123	0x3dfcac30	0.1233753
124	0xbd050b71	-0.032481615
125	0xbde071be	-0.109591946
126	0xbd8625bc	-0.06550166
127	0x3dce70d6	0.100801155
128	0x3de24974	0.11049166
129	0xbdae57c2	-0.08512832
130	0xbd65d628	-0.05611244
131	0xbd597f45	-0.05309989
132	0x3cadba53	0.02120701
133	0xbe12b662	-0.14327386
134	0xbde0da99	-0.10979194
135	0xbd36c3b3	-0.044620227
136	0x3de9e2fa	0.114202455
137	0x3dd8e9f2	0.105914965
138	0x3d42beec	0.04754536
139	0x3d87e79b	0.06635972
140	0x3d2e5ba0	0.04256785
141	0x3d49e624	0.049291745
142	0xbe0f0812	-0.13967922
143	0xbdea45a4	-0.11439064
144	0x3df124ce	0.11774598
145	0xbcff2214	-0.03114418
146	0x3e52ec06	0.20597848
147	0x3cce0654	0.025149502
148	0xbe0c898f	-0.1372435
149	0xbd8c213a	-0.06842275
150	0xbd8ea864	-0.06965712
151	0x3c98ad64	0.018637367
152	0x3ce21e0a	0.027602214
153	0xbdf54696	-0.11976354
154	0x3dc1d509	0.09464461
155	0xbd708b41	-0.058726553
156	0x3db3585c	0.087570876
157	0xbdc44bfc	-0.09584805
158	0xbd8602a0	-0.065434694
159	0xbe45733b	-0.19282238
160	0x3db04581	0.08607007
161	0xbda85abd	-0.08220432
162	0x3dcb1613	0.0991632
163	0x3d6655c6	0.056234144
164	0xbe652536	-0.22377476
165	0xbdaac16b	-0.08337673
166	0xbdca6964	-0.09883383
167	0xbd735ae7	-0.059412863
168	0x3d449169	0.047990236
169	0x3e0938a6	0.13400516
170	0x3dac857c	0.084238976
171	0xbda7f6e4	-0.082013875
172	0x3d3c4744	0.0459664
173	0xbe6a0c62	-0.22856286
174	0xbdcdc3bb	-0.10047098
175	0xbcd0cc17	-0.025487943
176	0x3e02f0db	0.12787192
177	0x3c7fdf77	0.015617243
178	0x3d85c238	0.06531185
179	0xbe108782	-0.14114192
180	0xbe23869d	-0.1596932
181	0x3dab4144	0.08362058
182	0xbc9ded7e	-0.019278284
183	0xbd10c38d	-0.03534274
184	0xbcd675f0	-0.026179284
185	0x3dc9ecf7	0.098596506
186	0x3be86b0b	0.0070928386
187	0x3d395151	0.045243565
188	0xbe06f824	-0.13180596
189	0x3cf58823	0.029972142
190	0x3d2fa189	0.04287866
191	0xbdb3134a	-0.087439135
192	0xbdb21088	-0.08694559
193	0x3e1359a7	0.14389668
194	0x3c989063	0.018623536
195	0xbdaee0b2	-0.08538951
196	0x3dbe111c	0.09280607
197	0x3dba1b94	0.09087291
198	0x3db6c109	0.08923537
199	0xbe1236a1	-0.14278652
200	0x3e236d29	0.1595961
201	0xbc62c9e2	-0.013842078
202	0x3d0f4d31	0.034985725
203	0x3dcba314	0.09943214
204	0x3de52cbe	0.111901745
205	0x3d9f8946	0.07789855
206	0xbcb91453	-0.0225927
207	0x3d01e06a	0.03170816
208	0x3d10c7e8	0.035346895
209	0xbdbdce0f	-0.09267818
210	0xbdaeead0	-0.08540881
211	0xbc8cac79	-0.017172085
212	0xbcc850ab	-0.024452528
213	0xbb8952e2	-0.0041907886
214	0xbd4b652c	-0.049657032
215	0x3c9c164e	0.019053604
216	0xbd8d16c1	-0.068891056
217	0x3ba934f5	0.0051637837
218	0x3df2fef7	0.11865037
219	0xbcf6877b	-0.030093899
220	0x3dd0090b	0.10157975
221	0xbd50f737	-0.051017012
222	0x3d0d7321	0.034533624
223	0xbc553012	-0.013011949
224	0xbdf54922	-0.119768396
225	0x3dc2691e	0.09492706
226	0xbd36c7a5	-0.04462399
227	0xbd3639af	-0.044488605
228	0x3c7e3b34	0.015517045
229	0xbd6bddae	-0.057584457
230	0xbbb4c64c	-0.005516803
231	0xbd3ba6e4	-0.045813456
232	0xbd870206	-0.06592183
233	0xbd322ba5	-0.043498654
234	0xbd621f0f	-0.0552054
235	0x3bd1e12e	0.0064050173
236	0xbd3b94e0	-0.045796275
237	0x3ddc8105	0.10766796
238	0xbd67e37e	-0.056613438
239	0xbd5caa09	-0.053873096
240	0xbce20367	-0.027589513
241	0x3db8c751	0.090223916
242	0x3d852073	0.0650033
243	0x3cb13a91	0.021634372
244	0x3ceeda6e	0.02915689
245	0x3b5fbc86	0.0034139468
246	0x3d8fb78b	0.0701743
247	0xbbc519e6	-0.00601505
248	0xbe190b96	-0.14945826
249	0xbcf15303	-0.029458528
250	0x3de1eab4	0.11031094
251	0x3d9554fe	0.072916016
252	0x3d42032c	0.047366306
253	0xbba47ca1	-0.0050197397
254	0xbc0f8f08	-0.008762129
255	0x3da94443	0.08264973

rnn.bias_ih_l0 f4 [400]
0	0x3d266755	0.04062589
1	0x3d9d6b7a	0.07686515
2	0xbd8f06e7	-0.069837384
3	0x3d82dfe8	0.06390363
4	0x3ddc9e12	0.10772337
5	0xbbcc52aa	-0.0062354403
6	0xbd41ba54	-0.047296837
7	0x3db25aab	0.087087
8	0x3cb10abb	0.021611562
9	0x3d605871	0.054771844
10	0x3df20fb4	0.118194014
11	0xba93b8c7	-0.0011270278
12	0x3ddaa6be	0.10676335
13	0x3e5aedca	0.21379772
14	0x3d482009	0.048858676
15	0x3cebda57	0.028790636
16	0x3bf737a5	0.007544475
17	0xbcb300cc	-0.021850966
18	0x3e2e65d2	0.17031029
19	0xbd44d035	-0.048050124
20	0x3bf4700f	0.0074596475
21	0x3e14f6e5	0.14547308
22	0x3c20c22f	0.009811922
23	0x3bda0638	0.0066535734
24	0x3dc6ad7f	0.097010605
25	0x3db741d9	0.08948106
26	0xbd4086a7	-0.047003414
27	0xbc4eb3a9	-0.0126160765
28	0x3da4a7cf	0.080398194
29	0x3cdbb2d1	0.026818665
30	0xbcf439d8	-0.029812738
31	0xbccff3bc	-0.025384776
32	0xbd03cd5c	-0.032178268
33	0x3e1157b3	0.14193611
34	0x3e692878	0.22769344
35	0xbb7d3deb	-0.0038641642
36	0x3d852de7	0.06502896
37	0xbc6a97c4	-0.01431841
38	0x3d9148ec	0.07093987
39	0xbd0078a5	-0.031365056
40	0xbcfaa6c9	-0.030597107
41	0xbdf9567f	-0.12174701
42	0xbdee48fb	-0.11635014
43	0xbd043776	-0.032279454
44	0x3d688abf	0.056772944
45	0xbd07f850	-0.033195794
46	0x3d229309	0.039691005
47	0x3d89a6b6	0.06721251
48	0x3d57f6a1	0.052725438
49	0x3d5eed5f	0.054425593
50	0x3cc72d46	0.02431358
51	0xbe0df673	-0.13863544
52	0xbc2c5b7b	-0.0105198575
53	0x3e0ab687	0.13546191
54	0xbc0c6da9	-0.008571067
55	0x3dba078b	0.0908347
56	0x3d941f26	0.072325036
57	0x3de94eb6	0.11391966
58	0x3dc88965	0.09791831
59	0x3db8c76b	0.09022411
60	0x3de73739	0.1128983
61	0x3dd3ec5e	0.10347818
62	0x3d156bab	0.036479633
63	0x3d38e83d	0.045143355
64	0xbdfd4267	-0.12366181
65	0x3e01de39	0.12682427
66	0xbd53aee6	-0.051680468
67	0xbd221046	-0.0395663
68	0x3db217b9	0.08695931
69	0x3ddc92e7	0.10770207
70	0x3d8d4945	0.06898741
71	0x3e2cd946	0.16879758
72	0xbd710f62	-0.05885256
73	0xbd206077	-0.039154496
74	0x3d537625	0.051626343
75	0x3d527c17	0.051387873
76	0x3deafc8c	0.11473951
77	0xbdf32f55	-0.11874262
78	0x3d22c2e6	0.03973665
79	0x3cbb64f1	0.022875281
80	0x3dbdb57d	0.09263132
81	0x3e05b174	0.13055974
82	0xbd7eeac7	-0.06223562
83	0x3d4ae760	0.049537063
84	0xbd3fde37	-0.04684278
85	0xbbfae726	-0.0076569496
86	0x3d33768d	0.04381423
87	0x3d726f8b	0.059188407
88	0xbd0c4892	-0.034248896
89	0xbdd3c0c0	-0.103394985
90	0x3dd100fe	0.10205267
91	0x3d8eacb9	0.06966538
92	0x3da4edc7	0.08053165
93	0x3e63f7fa	0.22262564
94	0xbd578940	-0.052621126
95	0xbcab1e97	-0.02088861
96	0x3dd45028	0.10366851
97	0x3c9fb24a	0.019494195
98	0xbd62cf4e	-0.055373482
99	0x3c26a1b1	0.010170386
100	0x3b685272	0.0035449532
101	0xbb9328a5	-0.004490929
102	0xbdb466a8	-0.088086426
103	0x3df1184b	0.11772212
104	0xbd9f6f97	-0.07784956
105	0x3cc33728	0.023830011
106	0x3d9a1fce	0.075255975
107	0xbe0a7db2	-0.13524511
108	0x3e7792ca	0.2417709
109	0x3e094ad2	0.13407448
110	0x3dc80753	0.09767022
111	0xbcce0fdd	-0.025154049
112	0x3c9d8dd1	0.019232662
113	0x3e5b5c28	0.21421874
114	0x3d1d948e	0.03847175
115	0xbc6909d1	-0.014223532
116	0x3dc5d0d4	0.096589714
117	0x3e16e46f	0.14735578
118	0x3e09260e	0.13393423
119	0xbd053b4a	-0.032527246
120	0x3e42e37d	0.19032092
121	0xbd15b00f	-0.036544856
122	0x3d9c1ea6	0.07623033
123	0x3a879ec7	0.0010347002
124	0x3b94ef98	0.0045451634
125	0xbb826e2b	-0.003980418
126	0x3e1e3fd4	0.15454036
127	0x3c6e9d0a	0.014563808
128	0x3d5416bc	0.051779494
129	0x3d187994	0.03722532
130	0xbdc66378	-0.09686941
131	0x3c692eeb	0.0142323775
132	0x3cbfdcfd	0.023420805
133	0xbd15b64d	-0.03655081
134	0xbc09e6c2	-0.008416833
135	0xbd76ccad	-0.060253788
136	0x3dbb6179	0.09149451
137	0xbc0d3a15	-0.008619805
138	0xbdfe4050	-0.124146104
139	0x3d13fcbd	0.036129702
140	0x3d22e03f	0.03976464
141	0x3ddc46c7	0.10755687
142	0xbcd3f585	-0.025873909
143	0xbd15f0c2	-0.036606558
144	0x3d8a5685	0.067547835
145	0xbd927e38	-0.071529806
146	0x3bd6b3b6	0.006552185
147	0x3de23d3e	0.11046837
148	0xbdb0ec2c	-0.08638796
149	0x3d7f6101	0.06234837
150	0x3e0f06f5	0.13967498
151	0x3dcffa84	0.10155204
152	0xbdfdbb8f	-0.123892896
153	0xbda475d0	-0.080302835
154	0x3dd0d331	0.101965316
155	0x3c3ac20f	0.011398806
156	0x3ca66b80	0.020314932
157	0x3e0aa5f8	0.13539875
158	0x3cc8a1de	0.024491247
159	0x3d7119c2	0.058862455
160	0x3df6f5e6	0.1205862
161	0xbcc83385	-0.024438629
162	0xbdb0ee0e	-0.08639155
163	0xbc530a26	-0.012880838
164	0x3dc4e1ca	0.09613378
165	0x3dbef626	0.09324293
166	0xbd39c968	-0.04535809
167	0x3c2d0d53	0.010562259
168	0xbd683766	-0.056693457
169	0xbdaaac8b	-0.08333691
170	0xbc208118	-0.009796403
171	0x3c71b915	0.0147536
172	0x3da0f954	0.078600556
173	0xbcbff469	-0.023431974
174	0x3dc3993d	0.09550712
175	0x3d980d98	0.07424468
176	0x3d29da1e	0.04146778
177	0xbd273833	-0.04082508
178	0x38ca68b1	9.651611e-05
179	0x3d8b386a	0.067978695
180	0x3c054bb6	0.008135727
181	0x3d51079f	0.05103266
182	0x3da8fa4a	0.08250864
183	0xbe039cac	-0.12852734
184	0x3ddfcb13	0.10927405
185	0x3d9de683	0.07709982
186	0xbd896932	-0.067095175
187	0x3d1868b2	0.03720922
188	0x3dcdf163	0.100558065
189	0x3e09797c	0.13425249
190	0xbaed23ba	-0.0018092312
191	0xbc54ae64	-0.012981031
192	0x3df36ffa	0.11886592
193	0x3d997a13	0.07493987
194	0x3e54d062	0.20782617
195	0x3c09e09f	0.00841537
196	0xbc4e9372	-0.012608396
197	0x3c7d58b2	0.015463041
198	0x3d04d7fe	0.03243255
199	0xbcfc6f27	-0.03081472
200	0xbd430d73	-0.047620248
201	0xbcc37bff	-0.023862837
202	0xbd3d231f	-0.046176072
203	0xbce39fab	-0.027786097
204	0x3d79fbe2	0.06103123
205	0x3d1cfc21	0.038326386
206	0x3dad41ee	0.08459841
207	0xbdc90273	-0.0981492
208	0x3c9649ff	0.018345831
209	0xbd61cc67	-0.055126574
210	0xbdb32135	-0.08746568
211	0xbda5ed15	-0.081018604
212	0xbc18d257	-0.009327493
213	0x3da2c76e	0.079481944
214	0xbc61b708	-0.013776548
215	0x3d817dac	0.06322798
216	0x3d89cb50	0.06728232
217	0xbd3bd599	-0.045858
218	0xbc50cfcd	-0.012744856
219	0x3d9afe23	0.07568004
220	0xbc57dd88	-0.013175376
221	0x3d376a51	0.044779126
222	0x3d45df9a	0.048308946
223	0xbca44efc	-0.020057194
224	0x3bbd74e4	0.0057817567
225	0x3c877aa2	0.016537968
226	0xbda955f7	-0.082683496
227	0x3cb06e10	0.021536857
228	0xbdb23d52	-0.08703102
229	0xbdb2ebee	-0.08736406
230	0x3d36e400	0.04465103
231	0x3bc1d44a	0.0059151994
232	0x3d145509	0.03621391
233	0xbd33a3e2	-0.043857463
234	0x3ca963db	0.020677498
235	0x3d89be14	0.06725708
236	0xbdb4be3b	-0.08825346
237	0x3d129db8	0.035794944
238	0xbdcdac44	-0.10042623
239	0x3d0cd1e1	0.034379844
240	0xbc9c3a27	-0.019070698
241	0x3d1d1f20	0.03835976
242	0x3d416224	0.047212735
243	0xbd33e916	-0.04392346
244	0x3d8b7a6b	0.06810459
245	0xbd16fa40	-0.03685975
246	0x3d6ebb8b	0.058284324
247	0x3d2272e1	0.03966034
248	0xbd1d6ad9	-0.038431976
249	0x3dd5eafa	0.10445209
250	0xbca00c9b	-0.01953726
251	0x3d0fbd2c	0.035092518
252	0xbd19c703	-0.037543308
253	0xbd6792b5	-0.056536395
254	0x3ca2b94f	0.019863753
255	0xbddb3970	-0.10704315

rnn.bias_hh_l0 f4 [400]
0	0x3e22427a	0.15845671
1	0x3d2624ea	0.040562548
2	0xbd0cc2fe	-0.034365647
3	0x3da2a150	0.07940924
4	0x3d8403e7	0.06446057
5	0x3de2c0ce	0.11071931
6	0xbcaee36f	-0.021348683
7	0x3dc59e10	0.09649289
8	0x3da5fa18	0.08104342
9	0xbd0779bf	-0.03307509
10	0xbc66cbc4	-0.014086667
11	0xbdb1a938	-0.08674854
12	0xbd60ef87	-0.05491593
13	0x3de5f8f6	0.11229126
14	0x3dd4e78b	0.10395726
15	0x3deb2df9	0.11483378
16	0xbc8806a4	-0.016604729
17	0x3e0d6c71	0.13810898
18	0x3e4a7298	0.19770277
19	0x3cd5a4ee	0.026079621
20	0x3d16e9b9	0.03684399
21	0x3e14d989	0.14536108
22	0x3dbcb627	0.0921443
23	0x3dd734ce	0.105081186
24	0x398336da	0.00025027135
25	0x3e1a8093	0.1508811
26	0xbd511dae	-0.051053695
27	0x3deacf57	0.11465328
28	0x3dd6a1d6	0.104800865
29	0x3d8a1e7e	0.06744097
30	0x3bcb81ed	0.0062105567
31	0xbd89f44e	-0.067360505
32	0x3c6e209f	0.014534145
33	0x3de0dacd	0.10979233
34	0x3db3587d	0.08757112
35	0xbdb6ad38	-0.089197576
36	0x3dd9540c	0.10611734
37	0xbdc073ee	-0.09397112
38	0xbce2fcf6	-0.027708512
39	0x3d80c54a	0.0628763
40	0xbd378242	-0.044801958
41	0x3d30b52c	0.04314153
42	0xbdabcb7e	-0.083884224
43	0xbbf6f6f7	-0.0075367647
44	0x3e58ee7c	0.21184725
45	0x3dfae15e	0.12250017
46	0xbd3bec34	-0.045879558
47	0x3d016ea9	0.031599674
48	0x3e05e11d	0.13074155
49	0xbd40ff8b	-0.047118705
50	0x3db7485f	0.089493506
51	0xbd8b6244	-0.06805852
52	0x3c953206	0.01821233
53	0x3e2e4572	0.17018679
54	0xbd2e8987	-0.042611625
55	0x3def2198	0.116763294
56	0x3dec1f2a	0.115293816
57	0x3e079873	0.13241749
58	0x3da21133	0.07913437
59	0x3e19accd	0.15007325
60	0x3e7a81e1	0.24463607
61	0x3d17bd07	0.037045505
62	0x3e1bc441	0.15211584
63	0xbc437ed2	-0.011932092
64	0xbe57cad3	-0.21073465
65	0x3e1f70b3	0.15570335
66	0xbe01cda2	-0.12676099
67	0xbd9f561a	-0.077800944
68	0x3cf07614	0.029353179
69	0x3c992bcc	0.018697642
70	0x3e1ee8e2	0.15518525
71	0x3dc59b2c	0.09648737
72	0xbd8cc761	-0.06873966
73	0x3b8a2199	0.004215431
74	0xbc4073eb	-0.011746387
75	0xbcbae2e1	-0.022813262
76	0x3dd8721f	0.10568642
77	0xbdab226b	-0.08356174
78	0x3c8fcca3	0.017553633
79	0x3dc8f152	0.09811653
80	0x3d83fbde	0.06444524
81	0xbd6ab9b7	-0.057306018
82	0x3cec5e4b	0.028853556
83	0x3dc9ed59	0.098597236
84	0x3d04434a	0.032290734
85	0x3d83c75f	0.064345114
86	0xbd1f67c1	-0.038917307
87	0xbcb12dfc	-0.021628372
88	0xbd7f46aa	-0.06232325
89	0x3c1d7532	0.009610461
90	0xbbacb0f9	-0.00527012
91	0x3d982562	0.07429005
92	0x3d33494f	0.043771084
93	0x3e1925c7	0.14955817
94	0x3cbc7a91	0.023007663
95	0x3ddab4f9	0.10679049
96	0x3d997134	0.07492295
97	0x3d15b76a	0.03655187
98	0x3cd2e339	0.025743114
99	0x3e2acb11	0.16679026
100	0x3d4366a5	0.04770531
101	0x3da12904	0.07869151
102	0x3d2e1945	0.042504568
103	0x3dfed9b6	0.12443869
104	0x3dc55b81	0.096365936
105	0xbdaa3239	-0.083103605
106	0x3e281b86	0.1641675
107	0xbd366640	-0.044531107
108	0x3e776173	0.24158268
109	0x3d5f5ea7	0.054533627
110	0x3e13fc15	0.1445163
111	0x3d026f48	0.031844407
112	0x3bb2b52c	0.0054537263
113	0x3e6a2e7b	0.22869293
114	0x3d8e71aa	0.069552734
115	0xbda5c029	-0.08093292
116	0x3e0fd8dc	0.14047569
117	0x3e0c929c	0.13727802
118	0x3e28026e	0.16407177
119	0xbd2ec3d6	-0.042667232
120	0x3e469b88	0.19395268
121	0x3cbc4d73	0.02298615
122	0xbbd24f57	-0.0064181495
123	0xbcf58909	-0.02997257
124	0xbc2a624a	-0.0103994105
125	0x3d5b77ce	0.05358105
126	0x3d33a719	0.04386053
127	0xbd8c3d98	-0.068476856
128	0x3e058d43	0.13042168
129	0x3d8b31d3	0.067966126
130	0xbd85790d	-0.06517229
131	0xbd13f588	-0.03612283
132	0x3d73760c	0.05943875
133	0x3dbecef3	0.09316816
134	0xbd8f5085	-0.0699778
135	0x3dca5aba	0.09880586
136	0x3d342173	0.043977212
137	0xbd837800	-0.064193726
138	0xbbb0d600	-0.0053966045
139	0x3da7f635	0.08201257
140	0xbc5694c1	-0.013096989
141	0x3e0d3304	0.13788992
142	0xbcd9aacb	-0.026570698
143	0xbdbb01d9	-0.09131212
144	0x3e14c5cd	0.1452858
145	0x3d321489	0.043476615
146	0x3da81f4d	0.08209095
147	0xbcb80f7b	-0.02246832
148	0xbd1ae242	-0.037813433
149	0x3de259ad	0.110522605
150	0x3db57595	0.088603176
151	0xbcc011d9	-0.02344601
152	0xbd8db908	-0.069200575
153	0xbc29529b	-0.010334636
154	0xbc0c095f	-0.008547156
155	0x3b8d4b82	0.0043119797
156	0x3c90842e	0.017641153
157	0x3d693b26	0.056941174
158	0xbd88ce56	-0.066799805
159	0x3dae6f7c	0.08517358
160	0x3c2072d8	0.009793006
161	0x3b2f1a29	0.0026718474
162	0x3d175398	0.036944956
163	0x3d6e2488	0.058140308
164	0x3d4795f7	0.048727002
165	0x3d731516	0.05934628
166	0x3a804b42	0.0009788054
167	0xbcab3bbd	-0.020902509
168	0xbd736917	-0.059426393
169	0x3d8f4c11	0.069969304
170	0xbd7d07ad	-0.0617749
171	0xbd9bcae9	-0.076070614
172	0x3d902c16	0.07039659
173	0x3d3bee25	0.04588141
174	0x3b78e71b	0.0037979546
175	0x3d454cc3	0.04816891
176	0xbd569cd5	-0.05239566
177	0xbd755566	-0.059895895
178	0x3df526e0	0.119703054
179	0x3cbbc410	0.022920638
180	0x3d28baed	0.04119389
181	0xbd032890	-0.032021105
182	0xbd83549b	-0.064126216
183	0x3d049065	0.032364268
184	0x3e055866	0.13022003
185	0x3da93e91	0.08263887
186	0xbd5ad6d1	-0.05342752
187	0xbbd7d3c6	-0.0065865247
188	0x3e0234ef	0.12715505
189	0xbb25e860	-0.0025315508
190	0xbd595eb4	-0.05306883
191	0x3e1e88e4	0.15481907
192	0x3dd7923f	0.10525941
193	0x3d787db5	0.06066676
194	0x3e00ff3b	0.12597363
195	0x3c8e4482	0.017366651
196	0x3d9a85ca	0.075450495
197	0x3d3071ce	0.043077283
198	0x3df7c6ed	0.12098489
199	0x3d31a159	0.043366764
200	0xbd8dcab5	-0.06923429
201	0xbcd6eece	-0.026236918
202	0xbd376ff0	-0.044784486
203	0x3d6217de	0.055198543
204	0x3d8b3764	0.06797674
205	0xbd06294e	-0.032754235
206	0x3dbc9491	0.09208024
207	0x3b1dd4f7	0.0024083236
208	0xbd36ddd3	-0.04464514
209	0x3d443094	0.04789789
210	0xbda0e6bc	-0.07856509
211	0xbd3c56d5	-0.045981247
212	0xbccb97da	-0.024852682
213	0x3d5ce259	0.0539268
214	0x3d9940af	0.074830405
215	0xbda49282	-0.08035757
216	0x3c96909c	0.018379502
217	0x3d4104be	0.047123663
218	0xbd7ed04f	-0.062210377
219	0x3ca9a916	0.02071051
220	0x3ddf9b65	0.10918311
221	0x3d45b81d	0.048271287
222	0xbd27fdad	-0.04101341
223	0xbcbbd6b6	-0.02292953
224	0xbd80019d	-0.06250308
225	0x3e046524	0.12929207
226	0xbdaae5de	-0.08344625
227	0xbc330606	-0.010926729
228	0x3d778e08	0.060438186
229	0x3bd6f0b5	0.0065594562
230	0xbca40239	-0.020020591
231	0x3d9709d1	0.07374919
232	0xbd843f8a	-0.064574316
233	0xbd705838	-0.058677882
234	0x3cc20458	0.023683712
235	0x3d1e7a54	0.03869088
236	0xbb9e4a31	-0.0048306216
237	0xbd5598da	-0.052147724
238	0x3ba6cc65	0.0050902837
239	0xbbf76734	-0.0075501446
240	0x3db9e341	0.09076548
241	0x3da7dc51	0.08196319
242	0x3c90415d	0.017609293
243	0x3d6a997a	0.057275273
244	0x3c1efe04	0.009704117
245	0x3da16c41	0.07881976
246	0x3d895e8c	0.067074865
247	0x3da7343a	0.08164258
248	0xbced784e	-0.02898803
249	0x3a3b68b0	0.00071490835
250	0xbcb408da	-0.021976877
251	0xbd5cebdd	-0.053935874
252	0xbdc2d9ac	-0.09514174
253	0xbc01afe5	-0.007915472
254	0x3d800d06	0.06252484
255	0x3d355a0a	0.04427532

rnn.weight_ih_l1 f4 [400, 100]
0	0xbd5d51d6	-0.054033123
1	0xbd755345	-0.059893865
2	0x3d30337c	0.04301785
3	0xbd4090d2	-0.04701311
4	0x3de56f4f	0.11202871
5	0xbc6a5a4e	-0.014303757
6	0xbdf538f0	-0.119737506
7	0x3cc0b6e0	0.023524702
8	0xbe047695	-0.1293586
9	0xbc1bc3f3	-0.009507167
10	0xbca031a0	-0.019554913
11	0xbd6f1a73	-0.058374833
12	0xbc8ca97d	-0.017170662
13	0xbd12161f	-0.035665628
14	0x3dc8813e	0.09790276
15	0xbd3ae82c	-0.045631573
16	0xbcad8390	-0.021180898
17	0x3d0e2215	0.034700472
18	0xbe091848	-0.13388169
19	0xbc495a9e	-0.012289671
20	0x3ce95703	0.028483873
21	0x3dc9fa03	0.09862139
22	0x3d57b9b6	0.052667342
23	0xbd4b8593	-0.049687933
24	0xbc756cc3	-0.014979544
25	0x3d9cc1e9	0.07654173
26	0x3bbf2f9d	0.0058345334
27	0xbe3198ae	-0.17343399
28	0x3dad2b47	0.0845552
29	0xbd9ead15	-0.077478565
30	0xbb933c5e	-0.0044932803
31	0x3d881a9a	0.06645699
32	0xbcb2a5d3	-0.021807587
33	0x3bc59ccc	0.0060306545
34	0x3d49c4bd	0.04925989
35	0xbb451972	-0.003007498
36	0x3da1b021	0.07894922
37	0x3d17bc72	0.03704495
38	0x3c910342	0.017701749
39	0xbd4dfed0	-0.050291836
40	0x3dcd20bf	0.100160114
41	0xbd1ad8ea	-0.03780452
42	0x3d026310	0.031832755
43	0xbd36bdaa	-0.04461447
44	0x3d8ea8fb	0.06965824
45	0xbd1ac40f	-0.037784632
46	0xbc85e0fc	-0.016342632
47	0xbe6e832e	-0.23292229
48	0x3d6d9033	0.057998847
49	0x3d35f8d4	0.044426754
50	0x3db05861	0.08610607
51	0x3ccbcf90	0.024879247
52	0xbe071cdf	-0.13194607
53	0xbcb6e4db	-0.022325924
54	0xbcfcd632	-0.030863855
55	0xbdbad00b	-0.09121712
56	0x3dec85a9	0.11548931
57	0xbe0fe2df	-0.14051388
58	0xbc45b9d8	-0.012068234
59	0xbd1a808d	-0.03772025
60	0xbdc35e0e	-0.09539424
61	0x3ce9db2a	0.028546888
62	0x3e25cb70	0.16190886
63	0x3d8cc4fb	0.068735085
64	0xbe22d782	-0.15902522
65	0xbd888488	-0.06665903
66	0xbd9e7774	-0.077376276
67	0x3d835d01	0.064142235
68	0x3cae9b7f	0.02131438
69	0xbcc70049	-0.024292128
70	0xbd35af57	-0.04435667
71	0xbd837da9	-0.06420452
72	0x3d5fcbc5	0.05463769
73	0xbdbb7ab5	-0.09154264
74	0x3b82599e	0.0039779684
75	0x3e26cb9a	0.16288605
76	0xbd8dd885	-0.069260634
77	0x3da49597	0.080363445
78	0x3bcacf10	0.0061892346
79	0x3d2c7e5d	0.042112697
80	0xbd4010de	-0.046891086
81	0x3e047fb7	0.12939344
82	0x3c22fcfd	0.009948012
83	0x3df78db8	0.120875776
84	0xbd88fbda	-0.06688662
85	0xbcd884dc	-0.02643054
86	0x3c59441b	0.0132608665
87	0xbd8e4600	-0.06946945
88	0x3b4eb1af	0.0031539013
89	0x3be9bd12	0.0071331346
90	0x3d852760	0.06501651
91	0xbc253b9f	-0.010085016
92	0x3d7894c7	0.06068876
93	0x3e287694	0.16451484
94	0xbd88983b	-0.06669661
95	0x3df4ed42	0.11959316
96	0xbe036f90	-0.12835526
97	0x3e04ad49	0.12956728
98	0xbda7c561	-0.08191944
99	0x3d217cc7	0.039425638
100	0x3c2b54da	0.010457242
101	0xbde8857c	-0.11353585
102	0xbb1a91c5	-0.002358542
103	0xbd89955a	-0.0671794
104	0x3cc46705	0.023974905
105	0xbdb31c1a	-0.08745594
106	0xbe014c64	-0.12626797
107	0xbc5c726f	-0.0134550175
108	0xbc9cbe67	-0.01913376
109	0x3dd8bc49	0.105827875
110	0xbe1bd7d3	-0.15219049
111	0x3cd5995a	0.0260741
112	0xbe3a96ba	-0.1822156
113	0x3d4efe37	0.050535407
114	0xbcc9d16b	-0.024635991
115	0xbda31740	-0.07963419
116	0x3e415029	0.18878235
117	0x3d61e7ba	0.055152632
118	0xbda19275	-0.078892626
119	0xbce4b773	-0.027919507
120	0x3e10ec42	0.14152625
121	0xbdae22e2	-0.08502747
122	0x3d9ba993	0.07600703
123	0x3ca1ab37	0.019734962
124	0xbd814795	-0.06312481
125	0x3dea704e	0.11447202
126	0xbc4f8949	-0.012667009
127	0xbd174e1b	-0.03693972
128	0x3d55d110	0.05220133
129	0x3da2a86f	0.079422824
130	0xbe03aa3d	-0.1285791
131	0x3d9d61c8	0.07684666
132	0xbdec400f	-0.11535656
133	0xbde2612d	-0.11053691
134	0x3d29c3a7	0.041446354
135	0x3cd7304e	0.02626815
136	0xbcf87b35	-0.030332187
137	0x3d897c28	0.06713134
138	0x3d035202	0.03206063
139	0x3cc42cc4	0.023947127
140	0xbd2b8d22	-0.04188264
141	0xbdf09866	-0.11747818
142	0x3d66b410	0.056324065
143	0xbdd2cdf9	-0.102931924
144	0x3dbc2e3c	0.09188506
145	0xbe5ff856	-0.21872076
146	0x3d3a8540	0.045537233
147	0x3d45c154	0.048280075
148	0x3d46d540	0.048543215
149	0xbd80f688	-0.06297022
150	0x3e14a24d	0.14515038
151	0x3d83a4a8	0.0642789
152	0xbde70e45	-0.112820186
153	0x3d244733	0.040106963
154	0x3d43f8e4	0.047844782
155	0x3d8f9bb8	0.07012123
156	0xbc98c707	-0.018649591
157	0xbcdc973b	-0.026927581
158	0x3c2bd565	0.010487889
159	0xbda86af9	-0.082235284
160	0x3d143437	0.03618261
161	0xbc9842ec	-0.018586598
162	0x3dbb6180	0.09149456
163	0xbc83ee89	-0.016104953
164	0xbdeec294	-0.116582066
165	0xbdc193a0	-0.09451985
166	0x3c32c348	0.0109108165
167	0x3c92d3d7	0.017923279
168	0x3da79894	0.08183399
169	0x3d883f58	0.06652707
170	0xbce3ca33	-0.027806377
171	0x3da1a53e	0.078928456
172	0x3e180318	0.1484493
173	0x3cb67ce8	0.022276357
174	0x3da3dffa	0.080017045
175	0x3e19e774	0.15029699
176	0xbbf01547	-0.007326755
177	0x3d6e1869	0.058128748
178	0xbdb0c4df	-0.086313
179	0x3c7fa546	0.015603369
180	0xbdb6f084	-0.089325935
181	0x3e647b4d	0.2231266
182	0x3a5e94da	0.00084908085
183	0xbd575970	-0.05257553
184	0xbdabea5a	-0.083943084
185	0x3e058f10	0.13042855
186	0x3d227781	0.03966475
187	0x3cceca90	0.025243074
188	0x3d112cc8	0.035443097
189	0x3e07a17d	0.13245197
190	0xbd5af549	-0.05345658
191	0xbd5faae8	-0.05460635
192	0x3ca0001b	0.0195313
193	0x3be2b30c	0.0069183167
194	0x3d5ae96a	0.053445257
195	0xbd789f83	-0.060698997
196	0x3d9eeceb	0.07760032
197	0x3e048320	0.12940645
198	0xbd41f0c9	-0.04734877
199	0x3e004672	0.12526873
200	0xbe235791	-0.15951373
201	0x3d123692	0.035696574
202	0xbb261d8a	-0.0025347196
203	0xbd8bee80	-0.068326
204	0x3bf456bb	0.007456628
205	0xbdd0904d	-0.10183773
206	0xbd2c816a	-0.042115606
207	0x3e00802c	0.12548894
208	0x3cb670fa	0.022270668
209	0x3c84e833	0.016224002
210	0xbd9d60ae	-0.07684456
211	0xbcbc6007	-0.022995008
212	0xbd7e24b5	-0.062046725
213	0x3d88084a	0.06642206
214	0x3ba26c4b	0.004956757
215	0x3cfe9be7	0.0310802
216	0x3bf06390	0.0073360875
217	0xbd9784b4	-0.07398358
218	0xbd70add5	-0.05875953
219	0x3cd8ec2e	0.026479807
220	0x3d0620a6	0.03274598
221	0x3c849122	0.016182486
222	0x3d5bfd25	0.053708214
223	0x3e0db2b7	0.13837706
224	0xbda6ae95	-0.08138768
225	0x3dc3b1b7	0.09555381
226	0xb8cfc9bc	-9.908105e-05
227	0x3d33b5d9	0.043874595
228	0x3cda7330	0.026666254
229	0x3c99e55a	0.018786121
230	0xbcc19357	-0.023629827
231	0x3dea9a98	0.11455268
232	0x3d0784d7	0.03308567
233	0xbe01e416	-0.12684664
234	0xbcedaef3	-0.029014086
235	0x3d86f4d4	0.06589666
236	0x3caa9e84	0.02082754
237	0x3d216260	0.03940046
238	0x3c3dedf9	0.011592382
239	0x3ddae4ab	0.10688146
240	0x3e1877b2	0.1488941
241	0x3d358645	0.044317503
242	0xbd850e4a	-0.06496866
243	0xbd841d4c	-0.064509004
244	0x3be17c47	0.00688127
245	0xbe02f0f0	-0.12787223
246	0x3d8a906d	0.06765828
247	0x3d9e20af	0.07721078
248	0x3dc73c9c	0.09728357
249	0xbe1d5613	-0.15364866
250	0xbcf173a6	-0.02947409
251	0x3df0d31f	0.11759018
252	0xbda85362	-0.08219029
253	0x3d89e632	0.067333594
254	0xbdb0099d	-0.085955836
255	0xbd114f7f	-0.035476204

rnn.weight_hh_l1 f4 [400, 100]
0	0x3d61620b	0.05502514
1	0x3d4bcf96	0.049758516
2	0x3cb6cc5a	0.02231424
3	0x3ba883e4	0.0051426757
4	0x3d8f5e62	0.07000424
5	0x3d30bbac	0.043147728
6	0x3d05a0f3	0.032624196
7	0xbd23950b	-0.03993706
8	0x3b8f4e33	0.0043733357
9	0x3deffd9d	0.11718295
10	0xbdbb6bc4	-0.09151414
11	0xbcbd3127	-0.023094727
12	0x3cacadb4	0.021078922
13	0x3dc3a10b	0.09552201
14	0x3c7c7099	0.015407705
15	0xbcf5cfef	-0.030006377
16	0xbd996da6	-0.07491617
17	0xbd1060a8	-0.03524843
18	0x3dc60e82	0.09670736
19	0xbd95e572	-0.07319154
20	0x3dc15f27	0.09441977
21	0x3d2a8d71	0.041638795
22	0x3d3b3987	0.04570916
23	0xbe1d9ad8	-0.153911
24	0x3d6abf7b	0.057311516
25	0xbc116ee6	-0.008876538
26	0xbdbe9b8b	-0.09307011
27	0x3da244a9	0.07923252
28	0xbdabab35	-0.083822645
29	0xbd91d4f7	-0.07120698
30	0xbc0e9ce5	-0.008704399
31	0xbd70c270	-0.05877918
32	0xbe09162e	-0.13387367
33	0xbd12467c	-0.03571175
34	0xbdce4258	-0.10071248
35	0xbb86e65a	-0.0041168155
36	0x3e0b5bb0	0.13609195
37	0x3dec7652	0.11546005
38	0x3cf889ff	0.03033924
39	0x3cc03c34	0.023466207
40	0x3da79d22	0.081842676
41	0x3c2ce84b	0.01055343
42	0xbdb0287b	-0.08601471
43	0x3d7f3796	0.06230887
44	0xbce4bee0	-0.027923048
45	0x3de4764a	0.11155374
46	0xbc8e476c	-0.017368041
47	0x3e10859c	0.14113468
48	0x3d98f697	0.07468908
49	0x3daaf761	0.08347965
50	0xbced3004	-0.02895356
51	0x3d11beff	0.03558254
52	0xbdb9ad79	-0.090662904
53	0xbd08e19f	-0.033418294
54	0xbd433b6a	-0.047664084
55	0xbd036db9	-0.03208706
56	0x3dddd0f7	0.108308725
57	0x3d18ce86	0.03730633
58	0xbd8c4806	-0.06849675
59	0xbb253070	-0.0025205873
60	0xbc8ed57f	-0.017435787
61	0xbd45bc29	-0.048275147
62	0xbd0dbfc0	-0.034606695
63	0xbd264591	-0.040593687
64	0x3d54cbbc	0.05195211
65	0x3d3c2faa	0.045943893
66	0xbd06ba38	-0.032892436
67	0x3cfe6916	0.031055968
68	0x3beac544	0.007164629
69	0x3b200ca0	0.0024421588
70	0xbda85b9e	-0.082205996
71	0x3bb079e4	0.0053856242
72	0xbb1a13bf	-0.0023510305
73	0xbd72d294	-0.059282854
74	0xbcfc3e74	-0.030791499
75	0x3dd762f6	0.10516922
76	0xbbbd1097	-0.0057698
77	0xbda3dc11	-0.08000959
78	0x3d10eb81	0.035380844
79	0xbd8c2b52	-0.068442
80	0x3dd33224	0.10312298
81	0x3db5d2ea	0.08878119
82	0xbd3e8305	-0.04651167
83	0x3cff0288	0.031129137
84	0x3d2e0659	0.042486522
85	0x3c249e76	0.010047546
86	0x3da35982	0.07976057
87	0x3c8500bc	0.016235702
88	0x3dd3bbbb	0.10338541
89	0xbc7739aa	-0.015089432
90	0x3dd7cf8a	0.10537632
91	0xbdf1b6a3	-0.11802413
92	0x3db43910	0.08799946
93	0x3ddad8c3	0.10685875
94	0x3c95a55c	0.018267326
95	0x3d50c218	0.050966352
96	0x3dd1f750	0.10252249
97	0x3d762531	0.060094062
98	0xbd69f3f1	-0.057117406
99	0x3dcc9cd1	0.09990848
100	0xbd3914d6	-0.045185886
101	0x3d6baa5a	0.057535507
102	0x3dee257a	0.11628242
103	0x3d64fe8f	0.05590683
104	0xbcd2ef00	-0.02574873
105	0x3c1079aa	0.0088180695
106	0x3e51ed97	0.2050079
107	0x3e14d134	0.1453293
108	0x3d4691b3	0.048478793
109	0xbb069981	-0.0020538273
110	0xbb55c7fb	-0.0032620418
111	0x3d7f6743	0.062354337
112	0x3e13584b	0.1438915
113	0x3ca4f017	0.020134015
114	0x3dc42f85	0.09579376
115	0x3e348ce1	0.17631866
116	0xbde9f23c	-0.11423156
117	0xbdb4130b	-0.08792695
118	0xbe2321ec	-0.15930909
119	0xbc5426fc	-0.012948748
120	0x3e10cd05	0.14140709
121	0xbd0872c3	-0.03331257
122	0xbe3ad375	-0.18244727
123	0xbdc7db25	-0.097585954
124	0x3e09bd6b	0.13451163
125	0xbdad9ec4	-0.08477548
126	0x3c5a2ba2	0.013316067
127	0xbbe31735	-0.0069302567
128	0xbdcfa87a	-0.10139556
129	0x3d6d1f01	0.057890896
130	0xbc91e8a6	-0.01781113
131	0xbcc2449b	-0.023714354
132	0xbdfa8678	-0.12232679
133	0x3cd36792	0.025806222
134	0xbd81494e	-0.0631281
135	0xbd45a940	-0.048257113
136	0x3e2f9b38	0.17149055
137	0xbdbd753e	-0.09250878
138	0xbe02c0c2	-0.12768844
139	0x3abb1c24	0.0014275354
140	0x3d4fd5e0	0.050741076
141	0x3c450d58	0.012027107
142	0xbcde2fc6	-0.02712239
143	0x3e09ee3f	0.1346979
144	0x3d8a33b8	0.06748146
145	0x3d434a98	0.04767856
146	0xbde0debe	-0.10979985
147	0x3df099f6	0.11748116
148	0x3d6633e5	0.056201834
149	0x3cecf62f	0.028925983
150	0x3e252124	0.16125923
151	0xbd5e3a71	-0.054254953
152	0x3d6acf76	0.057326756
153	0x3cf35921	0.029705586
154	0xbda3df3a	-0.080015615
155	0xbd0b0afd	-0.033946026
156	0x3cfe39b2	0.03103337
157	0x3e08e90f	0.13370155
158	0x3d818c4f	0.0632559
159	0x3cf9bf38	0.030486688
160	0xbd01c3bf	-0.03168082
161	0x3d1c4250	0.038149178
162	0xbdc4b663	-0.096051
163	0x3df15146	0.1178308
164	0x3d8e33eb	0.06943496
165	0xbde10f99	-0.10989303
166	0x3ced6b01	0.028981688
167	0xbdaf494e	-0.08558904
168	0xbc014410	-0.0078897625
169	0x3d1eab58	0.038737625
170	0x3c2799cf	0.010229542
171	0x3c4acc62	0.01237783
172	0xbe255ebd	-0.16149421
173	0xbda34158	-0.07971448
174	0xbe20ce7a	-0.15703765
175	0x3e004f12	0.12530163
176	0xbce7de8e	-0.028304365
177	0xbcd97940	-0.026547074
178	0x3cd7f686	0.026362669
179	0xbc55f4fa	-0.013058895
180	0xbd744e51	-0.059645
181	0x3d991a65	0.074757375
182	0xbca8b507	-0.020594133
183	0x3ca3348c	0.019922517
184	0xbdf2b07b	-0.11850067
185	0x3d90a14d	0.07062016
186	0xbd49a036	-0.049225055
187	0x3b2d280e	0.002642158
188	0x3e11598f	0.1419432
189	0xbc85076f	-0.016238896
190	0x3e1d276e	0.15347072
191	0xbd625e65	-0.055265803
192	0x3d3ff67c	0.046865925
193	0x3e271b40	0.16318989
194	0x3d6a0c9c	0.05714093
195	0xbd51373b	-0.051078063
196	0xbc6a1550	-0.014287308
197	0x3d7a163d	0.061056364
198	0x3e6dfc26	0.23240718
199	0xbdd00420	-0.10157037
200	0xbe1d2fcc	-0.15350264
201	0x3cabe806	0.02098466
202	0xbe08c35e	-0.13355777
203	0x3ddd1dcf	0.10796701
204	0xbdccc3ba	-0.099982694
205	0xbba92806	-0.005162242
206	0x3da651eb	0.08121093
207	0x3db82d8e	0.08993064
208	0x3e7cbd8f	0.24681686
209	0x3cfed510	0.031107455
210	0x3c0fdf8f	0.008781328
211	0x3bfc3a40	0.0076973736
212	0x3e3241d8	0.1740793
213	0xbd413881	-0.047173027
214	0x3e592837	0.21206747
215	0x3db359fc	0.087573975
216	0xbd8b6bf5	-0.068077005
217	0x3d0bf828	0.034172207
218	0x3d504446	0.05084636
219	0xbd8e07aa	-0.069350556
220	0x3d922e45	0.071377315
221	0xbe8036c1	-0.25041774
222	0xbd046b31	-0.03232879
223	0x3d744efc	0.059645638
224	0x3e1295ff	0.14315031
225	0x3d21e448	0.039524347
226	0xbd59a568	-0.05313626
227	0xbaeb72b0	-0.0017963257
228	0xbc9b7716	-0.018977683
229	0xbd21e780	-0.039527416
230	0x3d27217e	0.040803425
231	0xbe00ead1	-0.12589575
232	0xbd82108e	-0.06350814
233	0x3dd137f1	0.10215748
234	0xbdc4d654	-0.09611192
235	0xbdca54eb	-0.09879478
236	0x3e1fed81	0.15617944
237	0x3d5513a1	0.052020673
238	0xbe18b77b	-0.14913742
239	0xbbd0c559	-0.006371182
240	0x3da49e28	0.080379784
241	0x3e1688f2	0.14700678
242	0xbe3fe999	-0.18741454
243	0x3e3a7739	0.18209542
244	0x3dd80e3f	0.10549592
245	0xbd42f42c	-0.04759614
246	0xbe473898	-0.19455183
247	0x3e279252	0.1636441
248	0x3d352d00	0.04423237
249	0x3d1a3cee	0.037655763
250	0x3e3821d0	0.17981648
251	0x3de27869	0.11058123
252	0x3d381b8d	0.04494815
253	0xbd223f10	-0.039610922
254	0x3c244a93	0.0100275455
255	0xbe824a02	-0.25447088

rnn.bias_ih_l1 f4 [400]
0	0x3d624c6b	0.05524866
1	0x3dbb217e	0.091372475
2	0x3e4649f3	0.19364147
3	0x3e29f059	0.16595592
4	0x3d653640	0.05595994
5	0x3e51d098	0.20489728
6	0x3c271a5d	0.010199157
7	0x3ddf120c	0.10892114
8	0xbd5b95d6	-0.05360969
9	0x3df048fa	0.11732669
10	0xbd1bc99a	-0.03803406
11	0xbcf94314	-0.030427493
12	0x3ddec3a1	0.10877157
13	0x3e10a5fa	0.14125815
14	0xbd055a8e	-0.032557063
15	0xbd06d8ec	-0.032921717
16	0xbd964de3	-0.073390745
17	0x3e533a47	0.206277
18	0x3e222b6e	0.1583688
19	0x3d50184a	0.050804414
20	0x3d90f80d	0.07078562
21	0x3de1c9f7	0.1102485
22	0x3d833110	0.06405842
23	0x3e531ce8	0.20616496
24	0x3d1048a8	0.03522554
25	0x3db60a2f	0.08888661
26	0x3dc81f55	0.09771601
27	0x3da28852	0.07936157
28	0xbdb10271	-0.08643044
29	0x3e0e1b5d	0.13877626
30	0x3dcdd546	0.10050444
31	0xbdb7dbcc	-0.0897747
32	0xbdd5edb9	-0.104457326
33	0x3d81764e	0.06321393
34	0x3d9f760e	0.07786189
35	0x3deaaf6d	0.11459241
36	0x3de95829	0.11393768
37	0x3dc251d0	0.09488261
38	0xbca881f2	-0.020569775
39	0x3d141747	0.03615501
40	0x3c0eacb8	0.008708172
41	0xbdd5f440	-0.104469776
42	0x3c749fc3	0.014930668
43	0x3d3a36fc	0.045462593
44	0x3dfb8aa5	0.12282304
45	0x3db79628	0.08964187
46	0xbb3af7c8	-0.0028529037
47	0x3c162568	0.009164192
48	0x3b4d60a2	0.0031338115
49	0x3ca2de73	0.019881463
50	0x3e13d928	0.14438307
51	0xbb5e453f	-0.0033915786
52	0x3dcdfdbe	0.10058163
53	0x3e02d204	0.12775427
54	0xbd2112b0	-0.039324462
55	0xbd8e55bf	-0.069499485
56	0xbd96708c	-0.07345685
57	0xbd412360	-0.047152877
58	0x3c8eed3c	0.017447107
59	0x3b55ac85	0.003260405
60	0x3cba4571	0.02273819
61	0x3db28cc3	0.087182544
62	0x3d4ca87d	0.04996537
63	0x3d0c03df	0.03418338
64	0x3dd5194e	0.10405217
65	0xbccc6171	-0.024948807
66	0x3d5c86d1	0.05383951
67	0x3df173ee	0.1178969
68	0x3d44d0b0	0.048050582
69	0xbd40c2ad	-0.047060657
70	0x3e1aa8a2	0.15103391
71	0xbdba0234	-0.090824515
72	0x3c6d563f	0.014485895
73	0x3de06c77	0.10958188
74	0x3cf79c95	0.030226031
75	0x3da0dc53	0.078545235
76	0x3dd4f20a	0.10397728
77	0xbd996ab5	-0.07491056
78	0xbd8707f8	-0.06593317
79	0x3d9ae55c	0.07563278
80	0x3e569b7f	0.20957755
81	0x3d9eb9f0	0.077503085
82	0x3e2020c1	0.15637495
83	0xbd3c440f	-0.045963343
84	0xbc3a1f96	-0.01136007
85	0x3d073096	0.03300532
86	0xbcd89b1e	-0.026441153
87	0x3e39973d	0.18124099
88	0xbe1cd75f	-0.15316533
89	0x3b07f3e5	0.0020744738
90	0x3da640ab	0.08117803
91	0x3e62afc9	0.22137369
92	0xbcf37dc5	-0.029723058
93	0xbd213414	-0.039356306
94	0xbd10ced0	-0.03535348
95	0xbd390c37	-0.045177665
96	0x3ce7955f	0.028269468
97	0xbcd631dd	-0.026146824
98	0x3dedbeb7	0.116086416
99	0xbccea87f	-0.02522683
100	0x3a18fd93	0.00058361253
101	0x3d5d9570	0.054097593
102	0x3de2a58d	0.110667326
103	0xbdeab50f	-0.114603154
104	0x3e3e4f69	0.1858498
105	0x3cc12af0	0.023580045
106	0x3d4b9dc6	0.04971101
107	0x3e036db8	0.12834823
108	0xbacfda6b	-0.001585794
109	0x3dfd90ed	0.12381158
110	0x3d80a4e3	0.0628145
111	0x3def3bc6	0.11681323
112	0x3cd372a2	0.025811497
113	0xbe07c9da	-0.13260594
114	0x3def6d70	0.116907954
115	0x3d592e1e	0.053022496
116	0x3d3be03e	0.04586815
117	0x3d53b33c	0.051684603
118	0x3d048731	0.03235549
119	0x3d2b7a7d	0.04186486
120	0x3da79352	0.08182396
121	0xbbc3cd3c	-0.0059753936
122	0x3d8cb58e	0.06870566
123	0x3dec08e9	0.11525137
124	0x3d562964	0.052285567
125	0x3e07e4f8	0.13270938
126	0xbd8c732d	-0.068579055
127	0x3c7d1994	0.015447993
128	0xbd01875e	-0.031623237
129	0x3e1e7183	0.15472989
130	0xbcf9dcbd	-0.030500764
131	0xbbbba5dd	-0.0057265596
132	0xbd75fe56	-0.060057007
133	0x3d06d530	0.032918155
134	0x3defe6d8	0.11713952
135	0x3d811c1a	0.06304188
136	0x3df5ecf7	0.12008088
137	0x3df458c7	0.119309954
138	0x3e3fdd73	0.1873682
139	0x3e451991	0.19248034
140	0x3cfa24c3	0.030535107
141	0xbb85cbae	-0.0040831184
142	0x3e0f01b7	0.13965498
143	0xbd3d751d	-0.046254266
144	0x3e0e5b4c	0.13902014
145	0xba174217	-0.0005770041
146	0xbdcaee26	-0.099087045
147	0x3e023fae	0.12719604
148	0x3cb6c2d0	0.02230969
149	0x3e16ad69	0.14714588
150	0x3d03fdf2	0.032224603
151	0x3e0b5a82	0.13608745
152	0x3db59d98	0.08867949
153	0x3dea934d	0.11453877
154	0xbd849df8	-0.06475443
155	0x3d826b8e	0.06368171
156	0x3d845de5	0.064632215
157	0x3d948f40	0.07253885
158	0x3d37f57d	0.04491185
159	0x3cb8f6c2	0.0225786
160	0x3d033db2	0.03204126
161	0x3dab0234	0.083500296
162	0x3e3bb26d	0.18329783
163	0x3d99cb94	0.075095326
164	0x3cce390c	0.025173686
165	0x3d95979a	0.07304306
166	0x3dbbe3ed	0.09174333
167	0x3c20e7ed	0.00982092
168	0xbd7ac579	-0.06122348
169	0x3de057c3	0.10954239
170	0x3e021f37	0.1270722
171	0x3d72531d	0.059161294
172	0x3d925502	0.0714512
173	0xbc93fefc	-0.018065922
174	0x3dcc540b	0.099769674
175	0x3d886f48	0.0666185
176	0x3dafe55e	0.0858867
177	0x3dd423d2	0.10358395
178	0xbbe5ce0b	-0.0070130876
179	0x3e5973d5	0.21235593
180	0x3c65f881	0.014036299
181	0xbce61d06	-0.028090011
182	0x3db33915	0.08751122
183	0x3e26a2a1	0.16272976
184	0xbd8274aa	-0.06369908
185	0x3d127d00	0.03576374
186	0xbb3baae6	-0.00286358
187	0x3d9b5189	0.07583911
188	0x3d60d1fb	0.054887753
189	0xbd3c809c	-0.04602109
190	0xbd9d01db	-0.076663695
191	0x3d149abc	0.03628038
192	0x3c8edb39	0.017438518
193	0x3d8b59c0	0.06804228
194	0xbbf799c7	-0.0075561735
195	0x3de8dab6	0.11369841
196	0x3caf61a2	0.02140886
197	0xbdee16fa	-0.11625476
198	0xbd1e2306	-0.03860762
199	0x3e162fc2	0.14666656
200	0xbdd38f5c	-0.10330078
201	0xbbee571f	-0.0072735692
202	0x3d563175	0.05229326
203	0x3dd08f19	0.10183544
204	0xbd43d3c2	-0.04780937
205	0xbca77d29	-0.020445423
206	0x3d20dbe8	0.03927222
207	0x3d44703e	0.047958605
208	0xbc7c5f49	-0.015403577
209	0x3d437f96	0.047729097
210	0xbb836755	-0.004010121
211	0xbd654d47	-0.0559819
212	0x3c449c44	0.012000147
213	0xbd833ca0	-0.06408048
214	0x3c24c229	0.010056057
215	0x3d04f151	0.0324567
216	0xbdf2ece8	-0.118615925
217	0xbca019a1	-0.01954347
218	0x3cca78a6	0.024715733
219	0x3c82f6f0	0.01598689
220	0x3dc87994	0.09788814
221	0x3d15c521	0.03656495
222	0x39c5e432	0.00037744787
223	0xbc20cc27	-0.009814299
224	0x3c184f9d	0.009296325
225	0xbc2d7a8d	-0.0105883
226	0xbd92071a	-0.07130261
227	0x3dabdc7a	0.08391662
228	0xbd216cdf	-0.03941047
229	0xbdaec677	-0.08533948
230	0xbd34bcfd	-0.044125546
231	0xbdaa4e4d	-0.08315716
232	0xbd1c202f	-0.03811663
233	0x3d236bb7	0.039897647
234	0xbdcd5ccf	-0.100274675
235	0xbd54f4d6	-0.051991306
236	0x3d4c1cc7	0.04983213
237	0x3dd8bc67	0.1058281
238	0x3d88ff66	0.066893384
239	0x3cf96095	0.030441562
240	0x3c82cec9	0.015967743
241	0x3d0046c8	0.031317502
242	0xbdc42d0a	-0.09578903
243	0x3dd20ad3	0.10255971
244	0xbb9d9517	-0.0048090327
245	0x3d803b61	0.06261326
246	0x3c109afa	0.008826012
247	0x3d2f45db	0.04279123
248	0x3c94a839	0.018146621
249	0x3dadc662	0.08485104
250	0x3d9d8f2b	0.07693323
251	0xbd0aafa6	-0.033858918
252	0xbd51295a	-0.051064827
253	0xbcd32c8a	-0.025778074
254	0x3c1d55e3	0.0096029965
255	0xbd3840fb	-0.044983845
